fashion_cnn_state (2).pth (torch, 865241 bytes, 8 tensors)

conv1.weight f4 [16, 1, 5, 5]
0.024230981 -0.0751483 0.09021979 0.08276146 -0.063461445 0.06894293 0.16708262 0.12640782
0.048444033 -0.17797346 0.004100418 0.0121046305 -0.034101225 -0.08023889 0.034499932 -0.15134235
0.16928546 -0.12795769 0.027916217 -0.16551259 -0.047628235 -0.07880502 0.08901193 0.16636638
-0.16199961 -0.17179592 -0.19876347 -0.15244852 -0.15596938 -0.04555142 0.044100594 -0.015979363
-0.15287332 0.028367544 -0.10406361 -0.041585017 -0.034984708 -0.07178149 0.108170226 0.15319042
0.1492935 0.12765567 0.0322448 0.075686 0.11233971 0.06541467 -0.0029177906 -0.14614765
-0.057228923 -0.000549078 0.062437844 0.015598488 -0.04571419 0.03998215 -0.1472162 -0.036269616
0.093833946 0.19718821 0.010925174 -0.022481918 0.083367065 -0.15035573 0.03382311 0.109885626
-0.14611681 0.09362536 -0.006191063 0.034366656 0.173912 -0.15843926 0.19727765 -0.123919725
-0.01657405 0.06714492 -0.11219757 0.13519326 0.079716995 0.1312809 -0.18059456 -0.05249107
0.011841751 0.06552706 -0.0055583953 0.18131058 0.19946037 -0.1134783 -0.16960554 0.18382108
0.09122791 -0.14506905 0.03939381 0.16076641 -0.15464158 -0.004127908 0.14099292 -0.085191324
0.062577605 -0.05820873 -0.15397146 -0.057300877 -0.08137162 0.11336477 -0.017519856 0.1362046
-0.017710853 -0.056726526 -0.042929698 0.18221243 -0.01588018 -0.102987126 0.024917841 0.16933183
0.08869503 0.010643387 -0.019858241 0.051825047 0.072840594 -0.045910623 -0.009413672 -0.19771843
0.1660641 0.01622634 -0.17478918 -0.11422765 -0.10456276 0.15495081 0.051927973 0.08250568
-0.030617952 0.0052440404 0.19848421 0.055247284 0.044760156 -0.13401842 -0.036221433 0.025272513
-0.19869721 -0.15724905 0.09188831 0.12620042 -0.06544876 0.031784035 0.053020287 0.06770301
-0.12222803 -0.08550408 -0.15488163 0.07210586 0.15305196 0.07948625 0.16187344 -0.102865055
0.089903496 -0.16657102 -0.12563784 -0.14308651 0.1559711 -0.02570641 0.036047816 0.18770556
0.03537638 -0.16818526 0.02946055 -0.0041935444 0.049627066 -0.13018735 -0.18625644 0.047751166
0.14847337 -0.008246827 -0.02483635 0.084166765 0.022959186 -0.023341298 -0.029300332 0.19951014
-0.0798774 -0.024668528 0.14122985 -0.035116266 0.17171247 0.12605762 -0.06261361 0.16907279
0.07520149 -0.18315034 -0.011104417 0.031172395 0.088314466 -0.011799002 -0.06454251 -0.18147337
-0.1664366 0.1531482 -0.16312952 0.07422485 -0.1700404 -0.0875618 -0.16518505 -0.15532605
-0.1978843 -0.11096873 -0.109416366 -0.0910811 -0.15367453 0.19657342 0.070458435 -0.10979388
0.15043609 -0.08050239 0.16208176 0.011265779 -0.076598 -0.03315563 0.15050438 0.14150314
0.19550231 0.16609044 -0.07110875 0.16136275 -0.06793487 0.051784065 0.15298901 -0.10591755
-0.1015949 0.12042005 -0.19265853 0.03568659 0.17127097 -0.07256558 -0.017960763 -0.119012885
0.0075307847 -0.12794851 -0.057750583 -0.15310965 0.08635998 0.07229767 0.124811746 0.035382748
-0.0476501 0.15576099 0.13412957 0.17859128 -0.06931601 0.116940476 0.028546572 0.14214073
-0.17363432 0.09564512 -0.013711 -0.09431553 -0.05621612 0.045058396 -0.077998064 -0.19945645
00000000: 0d80 c63c 5ae7 99bd 27c5 b83d d77e a93d
00000010: 13f8 81bd f331 8d3d b517 2b3e 0d71 013e
00000020: 406d 463d ad3e 36be cd5c 863b 8052 463c
00000030: baad 0bbd 4a54 a4bd cd4f 0d3d 7df9 1abe
00000040: 2b59 2d3e 5707 03be 8db0 e43c 227c 29be
00000050: d315 43bd 8764 a1bd e34b b63d f35b 2a3e
00000060: 3ae3 25be 45eb 2fbe a788 4bbe 771b 1cbe
00000070: 70b6 1fbe 2094 3abd d3a2 343d 27e7 82bc
00000080: d38a 1cbe 0d63 e83c 4d1f d5bd 0d55 2abd
00000090: 204c 0fbd 2d02 93bd 5a88 dd3d f3dd 1c3e
000000a0: 65e0 183e 2bb8 023e 2013 043d 4301 9b3d
000000b0: 5d12 e63d 20f8 853d 6738 3fbb bba7 15be
000000c0: e068 6abd 00f0 0fba d3be 7f3d cd90 7f3c
000000d0: cd3e 3bbd 53c4 233d d8bf 16be 738f 14bd
000000e0: 032c c03d b5eb 493e 80ff 323c 002c b8bc
000000f0: 5abc aa3d daf6 19be 1a8a 0a3d b70b e13d
00000100: a59f 15be a7be bf3d 67de cabb 0dc4 0c3d
00000110: fd15 323e e73d 22be 2703 4a3e a0c9 fdbd
00000120: 4dc6 87bc 4783 893d d7c7 e5bd 1a70 0a3e
00000130: aa42 a33d 806e 063e c8ed 38be e000 57bd
00000140: e703 423c 0d33 863d 3323 b6bb 7ba9 393e
00000150: 573f 4c3e 5067 e8bd 13ad 2dbe 983b 3c3e
00000160: b3d5 ba3d fb8c 14be 675b 213d f39f 243e
00000170: 5d5a 1ebe 6743 87bb 7360 103e ca78 aebd
00000180: b028 803d 476c 6ebd b2aa 1dbe 53b4 6abd
00000190: 2aa6 a6bd ca2b e83d cd85 8fbc 3879 0b3e
000001a0: 5a16 91bc 135a 68bd 0dd7 2fbd e595 3a3e
000001b0: 2717 82bc eaea d2bd 8020 cc3c 5365 2d3e
000001c0: bda5 b53d 9a61 2e3c c0ad a2bc 8046 543d
000001d0: 732d 953d c70c 3cbd cd3b 1abc b376 4abe
000001e0: b50c 2a3e 1aed 843c effb 32be 30f0 e9bd
000001f0: 0025 d6bd 6dab 1e3e 6db2 543d bdf8 a83d
00000200: 80d2 fabc 33d6 ab3b 723f 4b3e fa4a 623d
00000210: 6d56 373d 203c 09be ed5c 14bd 4d08 cf3c
00000220: 4877 4bbe e505 21be f02f bc3d af3a 013e
00000230: 000a 86bd fa2f 023d cd2b 593d e0a7 8a3d
00000240: b052 fabd c31c afbd 4a99 1ebe 3dac 933d
00000250: a7b9 1c3e b0c9 a23d 27c2 253e eaaa d2bd
00000260: 531f b83d 9891 2abe 35a7 00be 4585 12be
00000270: e3b6 1f3e 4096 d2bc e0a6 133d e335 403e
00000280: d3e6 103d c238 2cbe 4057 f13c 006a 89bb
00000290: c045 4b3d d54f 05be 02ba 3ebe ba96 433d
000002a0: 6709 183e b31d 07bc 9a75 cbbc a05f ac3d
000002b0: e714 bc3c 4036 bfbc 4007 f0bc 634c 4c3e
000002c0: c396 a3bd a715 cabc 8f9e 103e 13d6 0fbd
000002d0: 65d5 2f3e 4015 013e 903b 80bd 6b21 2d3e
000002e0: 3d03 9a3d c38b 3bbe 4def 35bc 405d ff3c
000002f0: 37de b43d 9a50 41bc dd2e 84bd 28d4 39be
00000300: 5b6e 2abe e2d2 1c3e 6d0b 27be 3303 983d
00000310: 121f 2ebe 9a53 b3bd 4526 29be cb0d 1fbe
00000320: 2fa2 4abe 9343 e3bd b015 e0bd ba88 babd
00000330: db5c 1dbe 8b4a 493e 834c 903d 9ddb e0bd
00000340: eb0b 1a3e 70de a4bd c3f8 253e 1a94 383c
00000350: 6adf 9cbd 33ce 07bd d21d 1a3e 33e6 103e
00000360: c231 483e 9d13 2a3e 77a1 91bd 473c 253e
00000370: 7021 8bbd 871b 543d 27a9 1c3e 4deb d8bd
00000380: fd10 d0bd ca9e f63d 4748 45be 1a2c 123d
00000390: a861 2f3e 439d 94bd 7322 93bc 07bd f3bd
000003a0: cdc4 f63b ef04 03be e08b 6cbd c7c8 1cbe
000003b0: 80dd b03d cd10 943d 4d9d ff3d 80ed 103d
000003c0: c02c 43bd cf7f 1f3e 4359 093e a2e0 363e
000003d0: 8df5 8dbd 7d7e ef3d 80da e93c 578d 113e
000003e0: 32cd 31be 97e1 c33d 1aa4 60bc 8028 c1bd
000003f0: e042 66bd 278f 383d 73bd 9fbd 503e 4cbe

conv1.bias f4 [16]
-0.19283393 -0.11535783 -0.0082371 0.11781385 -0.088891104 0.12021978 0.09937246 0.032241534
-0.01839037 0.11190903 -0.1555467 -0.043032434 0.17776465 0.14606659 0.1275707 0.020865727
00000000: 4276 45be ba40 ecbd e7f4 06bc 6348 f13d
00000010: 8a0c b6bd ca35 f63d ca83 cb3d b30f 043d
00000020: 67a7 96bc 9030 e53d a247 1fbe c742 30bd
00000030: f007 363e 7b92 153e e5a1 023e 9aee aa3c

conv2.weight f4 [32, 16, 5, 5]
0.019128203 -0.0023430944 0.027670402 -0.048815336 0.00032004714 -0.03783957 0.009819585 -0.006977183
0.0019120753 0.045484137 0.031729247 -0.046509814 -0.04615078 0.014636732 -0.01849608 0.024961615
-0.0021146834 0.031681534 -0.02903433 0.038610585 -0.02932383 0.019760652 -0.02732045 -0.034974396
-0.0153500615 0.03341322 -0.023654258 0.03349468 0.03073883 0.021684332 0.005840099 -0.020134915
0.040051688 -0.044856053 0.033737328 -0.04197171 0.025182849 0.031849265 -0.0055243257 -0.004689568
0.014552605 0.043955196 -0.006838858 -0.045841247 0.025375111 0.011764109 0.0022379102 0.034216035
-0.008855087 -0.041419394 -0.011509985 0.028448522 -0.025931096 0.01350649 -0.04244603 0.04135058
-0.014464098 0.035478372 0.031461354 0.010589945 -0.024332916 -0.00038045048 -0.0021333098 -0.034831118
-0.0061451136 -0.036912363 0.032007795 -0.020515729 -0.017613625 0.043610383 0.009803665 -0.019026006
0.010065585 -0.010293203 -0.020744264 0.043311585 0.04867157 -0.047297765 -0.001718539 -0.008539033
0.033523258 0.0019567907 0.033305015 0.014043385 -0.026024355 -0.03416753 0.042948283 -0.047656782
-0.008151102 0.005399853 -0.010524511 -0.026114566 0.041092873 -0.03478501 -0.044351038 -0.03241967
-0.018163634 -0.01806789 0.01598288 0.009969247 0.0038104653 0.003595686 -0.027152276 0.021501888
0.039175846 -0.043753352 0.046352874 -0.0074126483 -0.04830861 0.019744014 0.0050571025 0.03365464
-0.03382637 -0.0056795063 -0.040970214 -0.007434243 -0.007438779 -0.01714564 0.011997104 -0.008043033
-0.028888298 -0.013441038 0.025138468 -0.0082267765 0.022763455 0.03833688 0.029239232 -0.005604756
0.008945346 0.03182999 0.0019065023 0.02382276 0.020164484 -0.008317239 0.006540841 -0.048808854
0.013196403 -0.042530607 0.021945387 0.033305604 9.407997e-05 -0.0070348918 0.002029127 0.035900723
-0.018251419 -0.016274964 -0.034799464 -0.017412752 0.014745707 -0.01840111 0.0493083 -0.04711148
-0.031299498 -0.018831242 -0.043175723 0.015097231 -0.043207265 -0.03475797 -0.03166714 -0.030535841
-0.019846076 -0.009848225 -0.014464021 0.02921362 -0.0006192505 -0.015002918 0.039027035 -0.046007227
0.013373059 -0.049086254 -0.009976381 -0.029565377 -0.034650475 0.04769736 0.025929183 -0.005803621
0.026874125 0.03553285 -0.016675372 -0.028585231 -0.049084347 0.046425324 -0.019605774 -0.015440327
-0.013032305 0.011485785 0.046856303 -0.009272486 0.022357821 0.030820293 0.031169314 -0.0323579
0.03266387 -0.048193585 0.017581714 0.028678674 0.019313557 0.025786722 0.015995448 -0.03959583
0.012262481 0.009811121 0.017012483 -0.03490733 0.01059823 0.008471715 0.040076315 -0.02164482
-0.019331425 -0.03380347 0.04644106 0.048399296 -0.033310015 -0.02185765 0.0006109834 -0.049164828
-0.031670213 0.037778664 -0.016910357 0.03173049 -0.03748436 0.025143636 0.038042944 -0.03033095
0.03828441 0.03654014 -0.017697066 -0.0027335584 -0.01261918 -0.039439578 -0.04844469 -0.0154120205
-0.04985098 -0.03552419 -0.01366933 0.008593577 -0.03103215 -0.022042353 -0.029943585 0.03016761
0.043674108 -0.04643762 0.029723091 0.042111885 0.018177379 -0.017362654 0.013958198 0.029444009
-0.043340255 -0.01007539 0.035931755 0.022717768 0.0012904465 0.046493392 -0.04415939 0.006682885
00000000: c0b2 9c3c 9a8e 19bb 0aad e23c 97f2 47bd
00000010: 00cc a739 aafd 1abd 53e2 203c daa0 e4bb
00000020: 9a9e fa3a 934d 3a3d 87f6 013d 1381 3ebd
00000030: 9a08 3dbd e7ce 6f3c 1785 97bc 4d7c cc3c
00000040: 8096 0abb 7fc4 013d 67d9 edbc 2226 1e3d
00000050: 8738 f0bc 17e1 a13c 23cf dfbc 5041 0fbd
00000060: d37e 7bbc 4ddc 083d 93c6 c1bc b831 093d
00000070: 00d0 fb3c 57a3 b13c 4d5e bf3b faf1 a4bc
00000080: 3d0d 243d fbba 37bd 2730 0a3d 87ea 2bbd
00000090: 434c ce3c 6074 023d 6705 b5bb f3aa 99bb
000000a0: 0d6e 6e3c 5d0a 343d 8018 e0bb 08c4 3bbd
000000b0: 77df cf3c 40be 403c e7a9 123b 1d26 0c3d
000000c0: ed14 11bc 62a7 29bd 6094 3cbc e00c e93c
000000d0: 736d d4bc 534a 5d3c e3db 2dbd 3a5f 293d
000000e0: d3fa 6cbc c551 113d 9fdd 003d 7381 2d3c
000000f0: d355 c7bc 3377 c7b9 00cf 0bbb 13ab 0ebd
00000100: f35c c9bb 6b31 17bd 9b1a 033d 9a10 a8bc
00000110: 734a 90bc cda0 323d 8d9f 203c 6ddc 9bbc
00000120: 20ea 243c d3a4 28bc e0ef a9bc 7d67 313d
00000130: d75b 473d 4dbb 41bd 9a40 e1ba 4de7 0bbc
00000140: af4f 093d 803d 003b d76a 083d 3a16 663c
00000150: 0731 d5bc 40f3 0bbd 8aea 2f3d c233 43bd
00000160: 338c 05bc 40f1 b03b 006f 2cbc 37ee d5bc
00000170: 0051 283d ba7a 0ebd 6fa9 35bd 7dca 04bd
00000180: e7cb 94bc 1d03 94bc 87ee 823c 0d56 233c
00000190: 00b9 793b 9aa5 6b3b 736e debc ba24 b03c
000001a0: da76 203d b736 33bd 83dc 3d3d cde5 f2bb
000001b0: 40df 45bd 33be a13c 0db6 a53b 73d9 093d
000001c0: 858d 0abd 271b babb 62d0 27bd f39a f3bb
000001d0: 00c1 f3bb 0375 8cbc 808f 443c edc6 03bc
000001e0: 27a7 ecbc cd37 5cbc 30ef cd3c 9ac9 06bc
000001f0: 6d7a ba3c 2207 1d3d 1d87 ef3c 1aa8 b7bb
00000200: 808f 123c 2a60 023d 9ae3 f93a f327 c33c
00000210: fd2f a53c 0745 08bc 8d54 d63b cbeb 47bd
00000220: ba35 583c 9334 2ebd d0c6 b33c 756b 083d
00000230: cd4c c538 f384 e6bb 1afb 043b a30c 133d
00000240: 0084 95bc 1353 85bc e289 0ebd 30a5 8ebc
00000250: fa97 713c edbd 96bc 80f7 493d f8f7 40bd
00000260: e733 00bd fa43 9abc 07d9 30bd 605a 773c
00000270: 1afa 30bd 605e 0ebd 67b5 01bd 4d26 fabc
00000280: 3d94 a2bc 735a 21bc 80fa 6cbc 6751 ef3c
00000290: 3355 22ba cdce 75bc d0da 1f3d 1372 3cbd
000002a0: ad1a 5b3c ab0e 49bd fa73 23bc 1733 f2bc
000002b0: a8ed 0dbd 4f5e 433d 7069 d43c 4d2c bebb
000002c0: 2027 dc3c e58a 113d ca9a 88bc 932b eabc
000002d0: ab0c 49bd 7b28 3e3d 4a9c a0bc 6df9 7cbc
000002e0: 7385 55bc e02e 3c3c 65ec 3f3d a0eb 17bc
000002f0: c027 b73c d77a fc3c ca56 ff3c b889 04bd
00000300: 8dca 053d a366 45bd 8707 903c 8aef ea3c
00000310: 7737 9e3c ad3e d33c e308 833c 3d2f 22bd
00000320: 93e8 483c d3be 203c c35d 8b3c fdfa 0ebd
00000330: 33a4 2d3c f3cc 0a3c 1027 243d 7a50 b1bc
00000340: f05c 9ebc 8275 0abd fb38 3e3d 573e 463d
00000350: 1570 08bd d00e b3bc 672a 203a 0f61 49bd
00000360: a0b8 01bd cdbd 1a3d 9787 8abc d5f7 013d
00000370: 3389 19bd 07fa cd3c ebd2 1b3d 9d78 f8bc
00000380: 1dd0 1c3d 1dab 153d 70f9 90bc 8025 33bb
00000390: adc0 4ebc 658b 21bd f06d 46bd b382 7cbc
000003a0: 8b30 4cbd d081 11bd 53f5 5fbc 13cc 0c3c
000003b0: 2337 febc 2a92 b4bc 404c f5bc 1022 f73c
000003c0: 9fe3 323d 6035 3ebd d77d f33c 837d 2c3d
000003d0: bae8 943c 203c 8ebc edb0 643c 9034 f13c
000003e0: 8d85 31bd 4013 25bc 2d2d 133d 9d1a ba3c
000003f0: 3324 a93a db6f 3e3d 7ae0 34bd 1afc da3b

conv2.bias f4 [32]
-0.011062867 0.03602307 0.007253289 0.04522691 -0.03219412 -0.0066558123 -0.033944096 -0.022603119
0.047124624 0.03237557 0.029009188 -0.035001893 -0.020274734 -0.028360724 0.01680593 -0.006259942
0.017373575 -0.041865535 0.0037917853 0.046756238 0.036756326 0.019997412 -0.0029770255 -0.009798318
0.0033178986 -0.033565205 -0.0052028657 0.03265059 0.04758352 0.046717107 0.03873126 -0.007802117
00000000: 0741 35bc ed8c 133d 00ad ed3b da3f 393d
00000010: fbdd 03bd 0019 dabb f708 0bbd 2d2a b9bc
00000020: c005 413d 3f9c 043d ada4 ed3c 255e 0fbd
00000030: 3317 a6bc c054 e8bc 97ac 893c 3320 cdbb
00000040: 0753 8e3c 327b 2bbd 9a7f 783b 7883 3f3d
00000050: cd8d 163d 9dd1 a33c 331a 43bb 2089 20bc
00000060: 1a71 593b ab7b 09bd cd7c aabb a0bc 053d
00000070: f0e6 423d 705a 3f3d aba4 1e3d e7a8 ffbb

fc1.weight f4 [128, 1568]
0.0075016934 -0.02217529 0.014355382 -0.0077786795 0.013762093 0.011508902 -0.007821702 0.0039446983
0.024848692 -0.009226026 -0.024278762 0.009124043 -0.015876371 0.008497531 -0.008796902 0.014953528
-0.01199518 0.012652435 -0.025084492 0.018040989 0.02520416 -0.017305361 -0.020086182 0.015030879
-0.012846173 0.0060514747 -0.014484628 -0.021946529 0.023977017 0.00027376786 -0.0071820607 -0.016081087
0.021116847 0.020608388 -0.0038689813 -0.015712526 0.018753268 -0.022029275 -0.021799786 0.009616736
-0.01630376 0.023655668 0.0068102865 0.014740821 0.001823673 0.019030357 -0.009355403 -0.016172405
0.02382582 -0.006695102 0.021359924 0.0029857007 -0.015633205 0.014272073 -0.021911515 -0.021239413
-0.02383747 0.024136176 0.0092344405 -0.023581563 0.020176701 -0.021276064 -0.013481835 0.023831535
0.016896846 0.0026345935 -0.011185999 -0.021679547 0.019122748 0.008407613 0.022803621 -0.012509718
0.0021361618 0.01680689 -0.0017712845 -0.017376516 0.015576076 0.003355711 -0.0120487185 0.001018304
0.0056545357 -0.019911524 -0.0054955096 0.00033529324 0.003128958 -0.0056721377 0.015444014 -0.01519427
-0.017263785 -0.011856761 0.021571832 0.01810863 0.004603535 -0.024332393 0.02169982 -0.023359973
-0.008230521 0.016166022 -0.009296328 0.004947191 0.004623892 0.020722633 0.0048963167 -0.016952552
-0.020771617 0.015178297 0.018390073 -0.021859882 -0.02170131 -0.024684316 -0.0095838625 0.004184017
-0.008516747 0.008983032 0.020851007 -0.008363933 -0.005912736 -0.0030123435 0.014276333 0.024834774
-0.02260021 0.010381392 0.010247762 -0.019110989 0.020884128 0.0052385433 -0.0048824055 0.014974384
-0.010980654 -0.005240976 0.0039878567 0.012694086 -0.0086585255 -0.004272432 0.02358081 -0.004982155
-0.017731158 0.015791997 -0.002610055 0.00982667 -0.009999165 0.0035042004 -0.001504784 0.0002145094
0.010586 0.003923908 -0.003925404 -0.02317004 -0.024726117 0.010878914 0.0070972852 0.02028392
0.020810034 -0.014494886 0.014204753 -0.006364376 0.010364262 0.0066012745 0.015588744 -0.010855608
0.0074313204 0.0036193095 -0.015124394 -0.015572044 -0.013554562 0.022353614 0.0028561263 0.007869431
0.022944609 0.0019616438 0.022460107 0.015241345 0.01770496 0.020479692 -0.004824062 -0.010986085
-0.018291473 -0.01997873 -0.015991686 0.008022505 0.020505188 0.018634386 -0.004718978 -0.002281472
0.022349402 0.02053594 -0.006495546 0.0016802353 0.011001493 0.023509521 -0.008866688 0.011740454
0.006342589 -0.00075623486 -0.0123728905 -0.014644985 0.01684179 -0.018617753 0.004698883 -0.0019719577
-0.020418068 0.012391095 0.018053211 -0.00056407537 -0.005019274 -0.009959029 0.0043317867 -0.011204992
0.019236099 -0.002321054 0.0070545063 -0.011061281 0.023879072 -0.018696249 0.0032128 -0.010484517
-0.0058266963 -0.02135275 -0.012862174 -0.007670877 -0.0030097486 -0.015771098 -0.0035957794 0.01607436
0.010807448 -0.014625751 -0.00725194 0.019367835 0.017747069 0.0050985524 0.0033283157 0.0025554537
0.017866855 0.010061181 -0.012715033 0.0054294295 0.009189242 -0.017700791 0.012543799 0.022087466
0.0043445304 -0.024888994 0.00291366 0.025192244 0.006416924 -0.0006133149 -0.014271411 -0.014649748
0.009174298 0.00575172 -0.022314077 -0.021111408 -0.014949629 -0.01712263 0.020496095 -0.023035897
00000000: c4d0 f53b f4a8 b5bc d632 6b3c 4be4 febb
00000010: 677a 613c d58f 3c3c 9926 00bc 8742 813b
00000020: 7c8f cb3c c228 17bc 41e4 c6bc 037d 153c
00000030: 2a0f 82bc 3a39 0b3c e220 10bc a4ff 743c
00000040: 6e87 44bc 294c 4f3c fe7d cdbc b2ca 933c
00000050: f478 ce3c f9c3 8dbc c78b a4bc 1344 763c
00000060: c178 52bc 734b c63b ef50 6dbc 35c9 b3bc
00000070: 736b c43c 8088 8f39 7e57 ebbb 7cbc 83bc
00000080: 3dfd ac3c ecd2 a83c bc8e 7dbb 8eb7 80bc
00000090: 74a0 993c bd76 b4bc 7795 b2bc 848f 1d3c
000000a0: 778f 85bc 88c9 c13c d328 df3b 7c83 713c
000000b0: 5008 ef3a 8de5 9b3c 6747 19bc fe7b 84bc
000000c0: 5e2e c33c 9662 dbbb 02fb ae3c bfab 433b
000000d0: 3511 80bc 6ad5 693c c77f b3bc 47fe adbc
000000e0: cc46 c3bc 3bb9 c53c 0d4c 173c 1f2e c1bc
000000f0: 9c49 a53c 244b aebc eae2 5cbc 5a3a c33c
00000100: 416b 8a3c 25a9 2c3b 7b45 37bc 4e99 b1bc
00000110: 4fa7 9c3c 16c0 093c a9ce ba3c 8ff5 4cbc
00000120: d9fe 0b3b 9aae 893c 722a e8ba 3259 8ebc
00000130: cc32 7f3c 7deb 5b3b fd67 45bc 9d78 853a
00000140: af49 b93b 7e1d a3bc ad13 b4bb 4cca af39
00000150: 340f 4d3b 57dd b9bb e408 7d3c 63f1 78bc
00000160: c86c 8dbc dc42 42bc 69b7 b03c 8d58 943c
00000170: 40d9 963b ba54 c7bc d2c3 b13c 6a5d bfbc
00000180: 4fd9 06bc 9b6e 843c a04f 18bc 0c1c a23b
00000190: 0484 973b 83c2 a93c 4871 a03b 14e0 8abc
000001a0: 3d29 aabc 64ae 783c c7a6 963c 7f13 b3bc
000001b0: f2c6 b1bc c336 cabc a205 1dbc 141a 893b
000001c0: d389 0bbc 912d 133c bbcf aa3c e108 09bc
000001d0: a0bf c1bb bd6a 45bb 48e7 693c 4c72 cb3c
000001e0: 1324 b9bc b716 2a3c 3be6 273c a68e 9cbc
000001f0: 3115 ab3c 16a8 ab3b 96fc 9fbb 1e57 753c
00000200: 33e8 33bc 7ebc abbb 91ac 823b dbfa 4f3c
00000210: 7ddc 0dbc c2ff 8bbb 8b2c c13c 5841 a3bb
00000220: ef40 91bc 385e 813c 750d 2bbb 0b00 213c
00000230: 8ad3 23bc baa6 653b 2c3c c5ba eeed 6039
00000240: e770 2d3c 2094 803b ada0 80bb 19cf bdbc
00000250: 6d8e cabc 793d 323c 5890 e83b 772a a63c
00000260: ce79 aa3c f57b 6dbc 0dbb 683c 418c d0bb
00000270: dece 293c 814f d83b ee67 7f3c b8db 31bc
00000280: 6f82 f33b f031 6d3b 4ecc 77bc e321 7fbc
00000290: f413 5ebc ed1e b73c d92d 3b3b c9ee 003c
000002a0: 55f6 bb3c ec8e 003b 42fe b73c d6b6 793c
000002b0: fe09 913c 07c5 a73c 2a13 9ebb fbfe 33bc
000002c0: 00d8 95bc 6faa a3bc ff00 83bc d370 033c
000002d0: 7ffa a73c 24a7 983c a8a1 9abb c084 15bb
000002e0: 1816 b73c fd3a a83c 97d8 d4bb 573b dc3a
000002f0: 9b3f 343c 0a97 c03c 9645 11bc 085b 403c
00000300: 7ed5 cf3b 103e 46ba aab7 4abc 85f1 6fbc
00000310: cbf7 893c 4284 98bc 16f9 993b f63b 01bb
00000320: cb43 a7bc 0504 4b3c 54e4 933c 75de 13ba
00000330: b978 a4bb 322b 23bc a9f1 8d3b 2595 37bc
00000340: 0695 9d3c d31c 18bb 7d29 e73b 603a 35bc
00000350: 0b9e c33c e028 99bc d78d 523b 40c7 2bbc
00000360: dfed bebb f6eb aebc debb 52bc fb5b fbbb
00000370: 343f 45bb 6432 81bc 2ba7 6bbb 60ae 833c
00000380: b911 313c d9a0 6fbc afa1 edbb 4ba9 9e3c
00000390: 4d62 913c c211 a73b df1f 5a3b 6679 273b
000003a0: 835d 923c a7d7 243c b752 50bc 5be9 b13b
000003b0: 798e 163c 4001 91bc 8284 4d3c c6f0 b43c
000003c0: 905c 8e3b 01e4 cbbc 1af3 3e3b f75f ce3c
000003d0: 0f45 d23b dec6 20ba a3d2 69bc 7f05 70bc
000003e0: cb4f 163c ed78 bc3b 03cc b6bc d5f1 acbc
000003f0: 4aef 74bc c244 8cbc 6de7 a73c c7b5 bcbc

fc1.bias f4 [128]
-0.0027973827 0.02295831 0.025210358 0.022287272 0.018094463 0.01982294 0.008189012 -0.016871309
0.008839411 -0.015106812 0.0049635503 0.018136876 -0.0059994413 -0.0010166663 0.0009717588 -0.021335827
0.0009439058 -0.0036524578 -0.017030988 0.024532115 0.013981843 -0.020288127 0.0047908113 -0.015776023
-0.004167968 0.0077749556 -0.005295899 0.017071627 -0.008890755 0.020481888 -0.0005859616 -0.0007381599
0.0063238605 0.016234752 0.019181546 -0.012225455 -0.018495733 -0.01113844 0.014078131 -0.011878027
-0.01400644 0.01970037 0.020160956 -0.021634093 -0.016330378 0.022115199 0.017882619 -0.02507524
0.016799169 0.019633062 0.00064403395 -0.010411578 -0.019350037 -0.013776721 -0.017958375 0.023769943
0.022518774 0.016530115 0.001059939 -0.005094907 0.00074769714 -0.01566191 0.0024307081 0.022532087
0.0023753091 -0.010340311 -0.007925628 -0.0145358825 -0.01066051 -0.010009771 0.010518454 -0.0045572273
-0.018875647 -0.0063101267 0.004174823 -0.01889051 -0.0016228494 -0.017208809 -0.011334929 0.006930209
-0.009330488 0.00071074336 0.001571957 0.021634877 0.0075484435 -0.007567846 -0.01122351 -0.009374434
-0.023217618 -0.011222366 -0.017900944 0.0032198657 0.023680981 0.020258972 0.0008801737 -0.02299367
-0.003857686 -0.004207875 0.0054025366 -0.008843454 -0.008157911 -0.0045086714 -0.008022238 -0.0054486273
0.0045929197 0.018692238 -0.021940542 -0.022046816 0.019092357 -0.022599544 0.0077163745 -0.015205225
-0.0141654955 0.01336821 -0.0033613436 -0.021797601 0.011184254 -0.021453721 -0.00013138377 -0.022580743
0.0054781754 -0.021546267 0.0017820109 -0.00071090896 -0.018312564 -0.01911175 0.022381723 -0.0053520957
00000000: 4b54 37bb 1113 bc3c f485 ce3c cc93 b63c
00000010: d73a 943c b863 a23c 352b 063c b335 8abc
00000020: 2dd3 103c 9082 77bc 47a5 a23b c993 943c
00000030: f696 c4bb a941 85ba a1bd 7e3a 79c8 aebc
00000040: 7270 773a 135e 6fbb 9284 8bbc 93f7 c83c
00000050: 1a14 653c 4933 a6bc 3dfc 9c3b b83c 81bc
00000060: 7393 88bb 0ec5 fe3b 3989 adbb ccd9 8b3c
00000070: 87aa 11bc a2c9 a73c 389b 19ba 1381 41ba
00000080: 6338 cf3b befe 843c 9e22 9d3c 464d 48bc
00000090: 5d84 97bc 017e 36bc f6a7 663c 0e9c 42bc
000000a0: 447b 65bc ac62 a13c 9728 a53c fb39 b1bc
000000b0: 49c7 85bc ef2a b53c 927e 923c 976a cdbc
000000c0: 699e 893c 84d5 a03c 63d4 283a 5395 2abc
000000d0: f883 9ebc c2b7 61bc 711d 93bc 2fb9 c23c
000000e0: 4b79 b83c 2a6a 873c a7ed 8a3a 2df3 a6bb
000000f0: 1b01 443a 684d 80bc 844c 1f3b 3695 b83c
00000100: 13ab 1b3b 686a 29bc 7eda 01bc e927 6ebc
00000110: 6ba9 2ebc 0600 24bc 9855 2c3c cb54 95bb
00000120: 1aa1 9abc 2ec5 cebb f4cc 883b 45c0 9abc
00000130: cab5 d4ba 7df9 8cbc 23b6 39bc cf16 e33b
00000140: e7de 18bc 2e51 3a3a 200a ce3a a03b b13c
00000150: ef58 f73b b2fb f7bb d0e2 37bc 3a97 19bc
00000160: e032 bebc 04de 37bc 00a5 92bc 6204 533b
00000170: 9efe c13c 25f6 a53c 75bb 663a 395d bcbc
00000180: 3bd1 7cbb 37e2 89bb c307 b13b 22e4 10bc
00000190: c2a8 05bc 7abd 93bb b46f 03bc 668a b2bb
000001a0: 3480 963b 7720 993c a7bc b3bc 869b b4bc
000001b0: 9367 9c3c ae22 b9bc a4d9 fc3b 561f 79bc
000001c0: 6516 68bc 5606 5b3c fd49 5cbb e290 b2bc
000001d0: 293e 373c b7bf afbc 10c4 09b9 40fb b8bc
000001e0: 4482 b33b cc81 b0bc 5d92 e93a 4b5c 3aba
000001f0: 3b04 96bc 3f90 9cbc e059 b73c a260 afbb

fc2.weight f4 [10, 128]
0.06974009 -0.063571736 0.08608086 0.009335938 0.07930082 -0.058171563 0.087531164 0.055121135
-0.06515655 0.020372206 -0.04755139 0.07337821 0.001289841 -0.0053750193 0.038714156 0.080268115
0.0132353855 0.07805989 -0.012445195 0.014127645 -0.079769075 -0.003269289 0.01872459 -0.044928435
-0.034502726 -0.011402998 0.07133194 0.0258007 0.008719804 0.041960757 0.02488864 0.012489608
0.020018972 0.00802751 -0.017833259 0.08448028 -0.0022480285 -0.011754861 -0.08489821 0.0063546803
-0.061471503 -0.025912482 0.043173008 0.0011399142 0.021672025 0.06512199 -0.036485337 -0.04196724
0.04062402 -0.06967291 -0.035881046 -0.059666123 -0.052674465 0.002063341 -0.05729183 0.004987879
0.075751744 0.08387292 0.034937937 0.03401023 0.0098949 0.08098378 0.0018410269 -0.055430766
0.019321948 0.02153274 0.08011021 -0.019046992 0.051761683 0.049898528 0.012256746 -0.0015067287
0.016895227 0.013319173 -0.05568019 -0.056226615 0.07701857 0.04509821 0.056165952 0.054758586
-0.07002029 -0.07273696 0.024729136 -0.001982008 0.0058843745 -0.0071440595 0.0173154 -0.0052207513
0.0022102755 0.03709186 -0.073406935 -0.07763838 0.015580773 0.074642524 0.0541856 -0.052552674
-0.039351963 0.001043145 0.019123279 0.03160826 -0.014084739 0.0021017368 0.08015047 0.08032584
-0.076340586 0.06848936 0.0060931486 -0.010244961 -0.007335237 0.017024176 0.053572364 0.003728721
0.053652138 -0.032069072 -0.03073758 0.004501389 -0.040112134 -0.01620796 0.013353797 -0.085367896
0.0063058743 0.04519966 -0.05089153 0.0075102523 0.012873913 -0.08464214 0.08116468 -0.01493228
0.06510748 -0.05957003 0.055603568 -0.068664506 -0.08445034 -0.07580143 -0.08670144 0.084158234
0.003005186 -0.032551497 0.023130823 0.018413473 -0.03246089 0.067931406 -0.0625007 -0.02885643
-0.06201404 -0.022756431 0.024739673 -0.048128687 0.051858544 -0.08408055 0.054734174 0.03417375
0.018085508 -0.00032737563 -0.08032253 0.087182574 -0.025537312 -0.077442884 -0.055032518 0.025121344
-0.068141684 0.031002462 0.08019444 0.08818266 0.06828485 -0.05472274 0.06196403 -0.07662857
-0.03627204 0.00289925 0.012527371 -0.084109545 0.07478694 -0.04037704 0.08651871 0.01601693
-0.017534869 0.07765214 0.054154992 -0.023681566 -0.005294424 0.055680737 -0.07093219 -0.03144191
0.010900292 0.022608822 0.08497392 -0.045249194 -0.04893623 -0.065384574 -0.017782735 -0.0757484
-0.058663767 0.037503436 0.06383739 0.02366574 -0.002582801 0.04848661 -0.062145486 0.06087385
0.04464015 -0.029477557 -0.06888897 0.0028778394 -0.06904511 0.041874357 0.033309463 -0.07767722
-0.06752033 -0.034915883 0.035869233 -0.023618756 0.06404741 0.0403724 0.07349972 0.08623794
0.028017012 -0.005147142 -0.0069738072 0.009821838 -0.0054246048 -0.003346407 0.05570531 -0.03035749
-0.04390749 0.067132056 0.008658543 0.053688847 -0.074000515 0.08077636 0.07943574 0.07226931
0.0002400263 -0.023002476 0.0748921 -0.05854445 -0.05668299 0.061627902 -0.006496452 0.05849204
-0.02590106 -0.03536249 -0.083039366 0.07674495 -0.023804856 -0.051784325 -0.008302465 -0.04856242
0.0056890976 0.0095781665 -0.043441113 -0.037618097 -0.064722575 -0.041616935 0.008486331 -0.075687386
00000000: e4d3 8e3d e631 82bd 294b b03d c3f5 183c
00000010: 7868 a23d 4e45 6ebd 8a43 b33d b3c6 613d
00000020: cc70 85bd 9de3 a63c 3fc5 42bd 5147 963d
00000030: e20f a93a ee20 b0bb bc92 1e3d 9c63 a43d
00000040: 3bd9 583c dddd 9f3d eee6 4bbc a377 673c
00000050: f85d a3bd 9141 56bb 5064 993c e106 38bd
00000060: bb52 0dbd a4d3 3abc 7b16 923d fd5b d33c
00000070: 82dd 0e3c 0bdf 2b3d 43e3 cb3c 36a1 4c3c
00000080: d4fe a33c d185 033c 0e17 92bc ff03 ad3d
00000090: a953 13bb 7697 40bc 1ddf adbd ec3a d03b
000000a0: 8bc9 7bbd 6a46 d4bc 2ed6 303d 2c69 953a
000000b0: 8889 b13c ae5e 853d a671 15bd d7e5 2bbd
000000c0: 5f65 263d acb0 8ebd 01f8 12bd 7764 74bd
000000d0: 2ec1 57bd 1e39 073b d7aa 6abd 5d71 a33b
000000e0: bb23 9b3d 91c5 ab3d 151b 0f3d 504e 0b3d
000000f0: 381e 223c d3da a53d 9d4e f13a 5f0b 63bd
00000100: 1049 9e3c 6e65 b03c d210 a43d 7008 9cbc
00000110: 0f04 543d 6662 4c3d 85d0 483c 6d7d c5ba
00000120: dc67 8a3c a938 5a3c e910 64bd e14d 66bd
00000130: e9bb 9d3d e7b8 383d 450e 663d 8a4a 603d
00000140: cc66 8fbd 1ef7 94bd c294 ca3c 94e4 01bb
00000150: b6d1 c03b b718 eabb 07d9 8d3c d612 abbb
00000160: 45da 103b a2ed 173d 6056 96bd df00 9fbd
00000170: 8046 7f3c 2ede 983d b8f1 5d3d 7941 57bd
00000180: 862f 21bd 23ba 883a 6ca8 9c3c aa77 013d
00000190: adc3 66bc 4bbd 093b ee25 a43d e081 a43d
000001a0: 7458 9cbd 2644 8c3d 09a9 c73b 7bda 27bc
000001b0: 6e5c f0bb 4976 8b3c b26e 5b3d 8f5d 743b
000001c0: 58c2 5b3d dc5a 03bd 61cd fbbc 6380 933b
000001d0: 9f4c 24bd 8ec6 84bc e2c9 5a3c 5dd5 aebd
000001e0: 82a1 ce3b 4723 393d a373 50bd 9018 f63b
000001f0: 1bed 523c dc58 adbd ab39 a63d 86a6 74bc
00000200: 1257 853d b4ff 73bd 91c0 633d fa9f 8cbd
00000210: 4df4 acbd c83d 9bbd 8690 b1bd 275b ac3d
00000220: a8f2 443b b854 05bd da7c bd3c dad7 963c
00000230: b6f5 04bd 9f1f 8b3d 5e00 80bd 5264 ecbc
00000240: 6f02 7ebd b26b babc dbaa ca3c 9622 45bd
00000250: a069 543d 6c32 acbd f130 603d c6f9 0b3d
00000260: 0f28 943c 9da3 abb9 2380 a4bd c78c b23d
00000270: a033 d1bc 609a 9ebd c769 61bd 47cb cd3c
00000280: de8d 8bbd e0f8 fd3c fc3c a43d 1c99 b43d
00000290: edd8 8b3d f424 60bd ffcd 7d3d 71ef 9cbd
000002a0: fe91 14bd 5801 3e3b 9a3f 4d3c a041 acbd
000002b0: e529 993d 6562 25bd b930 b13d f035 833c
000002c0: 49a5 8fbc 1608 9f3d a0d1 5d3d d8ff c1bc
000002d0: d97c adbb 7c11 643d e544 91bd 3bc9 00bd
000002e0: 2397 323c 2336 b93c ce06 ae3d 3857 39bd
000002f0: 5b71 48bd 59e8 85bd 19ad 91bc fa21 9bbd
00000300: 6b49 70bd 349d 193d 2dbd 823d a7de c13c
00000310: 3644 29bb e599 463d 448c 7ebd dc56 793d
00000320: 97d8 363d eb7a f1bc a915 8dbd 229a 3c3b
00000330: 8667 8dbd 7284 2b3d 816f 083d 3c15 9fbd
00000340: 1948 8abd f503 0fbd 9eeb 123d 1f7c c1bc
00000350: 4a2b 833d 885d 253d 0587 963d 849d b03d
00000360: ef83 e53c 5ba9 a8bb 8984 e4bb c6eb 203c
00000370: e2c0 b1bb 654f 5bbb 402b 643d 45b0 f8bc
00000380: 57d8 33bd 887c 893d 90dc 0d3c d6e8 5b3d
00000390: 958d 97bd 146e a53d 35af a23d ef01 943d
000003a0: 92af 7b39 b06f bcbc 0861 993d 4ecc 6fbd
000003b0: 6c2c 68bd 8a6d 7c3d 30e0 d4bb 5995 6f3d
000003c0: 762e d4bc 42d8 10bd 8b10 aabd 752c 9d3d
000003d0: 6702 c3bc cd1b 54bd 1007 08bc 63e9 46bd
000003e0: 9c6b ba3b beed 1c3c 4fef 31bd 6f15 1abd
000003f0: 458d 84bd 8576 2abd 410a 0b3c fd01 9bbd

fc2.bias f4 [10]
0.08154559 -0.05379473 -0.025710672 -0.029515723 -0.017528284 -0.05781754 0.019152876 0.05314642
-0.058742497 -0.03855386
00000000: 6001 a73d dd57 5cbd 309f d2bc f5ca f1bc
00000010: 7a97 8fbc 16d2 6cbd 7ee6 9c3c 0fb0 593d
00000020: f99b 70bd a7ea 1dbd
