fashion_cnn_state.pth (torch, 865241 bytes, 8 tensors)

conv1.weight f4 [16, 1, 5, 5]
0	0xbe49dc25	-0.19712885
1	0xbe0a6085	-0.13513382
2	0xbe3030c5	-0.17206104
3	0xb9858ccd	-0.00025472642
4	0xbca65a1a	-0.020306636
5	0xbd79fca0	-0.061031938
6	0x3d2dcba7	0.042430546
7	0x3df55d80	0.11980724
8	0xbc661f4d	-0.014045549
9	0xbe13ab65	-0.1442085
10	0x3deef8f3	0.11668577
11	0x3d2d91fa	0.042375542
12	0xbe0cdc9f	-0.13756035
13	0x3dc49070	0.09597862
14	0xbd1c0c8d	-0.038097907
15	0x3e2e1970	0.17001891
16	0xbe0ffcc3	-0.14061265
17	0xbda9c427	-0.08289366
18	0x3d362627	0.04446998
19	0x3e30d883	0.17270093
20	0x3e1c9f8a	0.15295234
21	0x3e28c18d	0.16480084
22	0xbca7d333	-0.02048645
23	0xbdd8f84d	-0.105942346
24	0x3dcb7c5a	0.099358276
25	0xbe34062a	-0.17580476
26	0x3e19703b	0.14984219
27	0xbda9717a	-0.08273597
28	0x3dc50d9a	0.09621735
29	0xbe1dfa62	-0.15427545
30	0xbde7f3bd	-0.11325786
31	0xbc932a33	-0.017964458
32	0x3d931933	0.07182541
33	0xbe0108ca	-0.12601009
34	0xbd1d1b60	-0.038356185
35	0x3c726880	0.014795423
36	0xbc860627	-0.016360356
37	0x3e3675ad	0.17818327
38	0x3d126b27	0.03574672
39	0x3e34079f	0.17581032
40	0xbdb8387a	-0.08995147
41	0x3d754aad	0.05988567
42	0xbd18a89a	-0.037270166
43	0x3d405340	0.046954393
44	0xbc0b9480	-0.008519292
45	0xbe2c9db5	-0.16857035
46	0x3d824e87	0.06362634
47	0x3ddfd833	0.109299086
48	0xbe3f1e05	-0.18663795
49	0x3d6b44ad	0.05743854
50	0xbd63e7ba	-0.055640914
51	0xbd99e98d	-0.075152494
52	0xbe0dc862	-0.13845971
53	0x3e2833aa	0.16425958
54	0xbd795167	-0.060868647
55	0xbcaf0480	-0.02136445
56	0xbda66e27	-0.08126479
57	0x3dd76f7a	0.10519309
58	0xbdc7c08a	-0.09753521
59	0xbe1a51a0	-0.150702
60	0xbe0d0fc2	-0.13775542
61	0xbddd79a7	-0.10814219
62	0x3de6a727	0.112623505
63	0x3e3a9ce7	0.18223916
64	0x3e37bbf3	0.1794279
65	0xbdb3ce53	-0.087795876
66	0x3e283143	0.16425042
67	0xbceac6e7	-0.028659297
68	0xbda42930	-0.080156684
69	0x3e39fa07	0.18161784
70	0xbe49302d	-0.19647284
71	0xbc2d02e7	-0.010559774
72	0xbe17e6a8	-0.14834082
73	0xbd6909ba	-0.05689404
74	0xbc87180d	-0.01649096
75	0xbe036450	-0.12831235
76	0x3e2e43af	0.17018007
77	0x3e0f0a18	0.13968694
78	0xbd260ea0	-0.04054129
79	0x3df6c260	0.12048793
80	0x3dcef6ca	0.10105665
81	0xbe3a593f	-0.18198107
82	0xbd0315a0	-0.032003045
83	0xbd0acfba	-0.03388951
84	0xbdce170d	-0.1006299
85	0xbca35e0d	-0.019942308
86	0x3e2b1060	0.16705465
87	0xbd4a31ba	-0.04936383
88	0x3db3bd10	0.08776295
89	0x3dcd71da	0.10031481
90	0xbe14bf88	-0.14526188
91	0x3df04e27	0.117336564
92	0x3e0c0825	0.13674982
93	0xbe292bd2	-0.16520622
94	0xbdba7933	-0.09105148
95	0x3d1cdfed	0.03829949
96	0x3d8de453	0.06928315
97	0x3e2ab340	0.16669941
98	0xbe185495	-0.14876015
99	0xba70d19a	-0.00091865065
100	0x3d8bcfed	0.06826768
101	0xbe1a9910	-0.15097451
102	0xbdbd69d3	-0.092487
103	0x3cfaab67	0.03059931
104	0x3d88c78a	0.06678684
105	0xbe041f55	-0.12902577
106	0x3d3f5d5a	0.046719886
107	0xbc4815cd	-0.012212229
108	0x3cb07f00	0.021544933
109	0xbe156f57	-0.14593254
110	0xbcd25ea7	-0.0256799
111	0xbe170dfb	-0.14751427
112	0x3d85a3a0	0.065253496
113	0x3e1b3eff	0.1516075
114	0xbe4012ad	-0.18757124
115	0x3deee470	0.11664665
116	0xba727ccd	-0.0009250164
117	0x3d40893a	0.04700587
118	0xbde7c107	-0.11316114
119	0x3d18aba0	0.03727305
120	0xbe313baa	-0.17307916
121	0xbe1db557	-0.15401207
122	0x3d0817d3	0.033225846
123	0xbe022355	-0.1270879
124	0xbe21f692	-0.15816715
125	0x3e3565d2	0.17714623
126	0xbe2e8e9b	-0.17046587
127	0x3cc3164d	0.023814345
128	0xbc84a75a	-0.01619308
129	0x3e126ae7	0.14298593
130	0x3d36c347	0.044619825
131	0xbd89cf90	-0.067290425
132	0x3dc083d0	0.09400141
133	0xbe344272	-0.17603472
134	0xbe2595a2	-0.16170362
135	0xbdb0352a	-0.0860389
136	0xbe04513d	-0.12921615
137	0xbdc94210	-0.098270535
138	0xbdafc327	-0.08582144
139	0xbaf05400	-0.0018335581
140	0xbdfd7bcd	-0.12377129
141	0x3e0f3cfd	0.13988109
142	0x3de2316a	0.11044581
143	0x3c24efcd	0.010066939
144	0x3dbf54e3	0.09342363
145	0x3d72dd00	0.059292793
146	0xbcb180f3	-0.021667933
147	0xbe200845	-0.15628155
148	0x3ca34f67	0.019935323
149	0xbd99c0d0	-0.07507479
150	0x3e0248b0	0.1272304
151	0x3b88b39a	0.004171801
152	0xbd6441ad	-0.055726696
153	0x3e014762	0.12624887
154	0x3e02f37b	0.12788193
155	0xbd2a57f3	-0.04158778
156	0x3d69f77a	0.057120778
157	0xbdbe6f67	-0.09298592
158	0xbe0852f5	-0.13312896
159	0xbe1443d7	-0.14479004
160	0x3d3ba300	0.045809746
161	0xbe42981d	-0.19003339
162	0x3d8fd7b7	0.07023566
163	0xbdb5d660	-0.088787794
164	0x3c9d2500	0.019182682
165	0x3e0f849d	0.14015432
166	0xbd086580	-0.033299923
167	0xbcc7afda	-0.024375845
168	0xbda6c5ed	-0.0814322
169	0x3e1a1435	0.15046771
170	0xbddc6e5d	-0.107632376
171	0x3e418758	0.18899286
172	0xbe185af3	-0.14878444
173	0xbde029b7	-0.109454565
174	0xbe1e73fa	-0.15473929
175	0x3e3c60c2	0.18396285
176	0xbe2b61a3	-0.16736464
177	0x3d2eb6ed	0.04265492
178	0x3dae1360	0.08499789
179	0xbc46bd00	-0.012130022
180	0x3daee17a	0.085391
181	0xbe075c55	-0.13218816
182	0xbd12e5a7	-0.035863545
183	0xbc3b3480	-0.011426091
184	0xbe10cf15	-0.14141496
185	0x3d135cad	0.035977054
186	0x3e16d762	0.147306
187	0xbe1b4bdd	-0.15165658
188	0xbd8cbee3	-0.06872346
189	0xbdd42de7	-0.10360318
190	0x3e2790a5	0.16363771
191	0x3e43ad3f	0.19109057
192	0xbe45f5cd	-0.19332047
193	0xbdb48957	-0.08815258
194	0xbdf3b5bd	-0.11899898
195	0xbdcdd907	-0.1005116
196	0xbda21f9d	-0.07916186
197	0x3bea9200	0.007158518
198	0xbdbb216d	-0.09137235
199	0x3ccef61a	0.025263835
200	0x3d5a2a67	0.053263094
201	0x3e42dd3a	0.19029704
202	0xbc37d51a	-0.011220241
203	0x3d04c07a	0.032410122
204	0xbdbb7a07	-0.09154134
205	0xbe36241a	-0.17787209
206	0xbdb97f50	-0.09057486
207	0xbbc3a1cd	-0.005970216
208	0xbdac68f3	-0.08418455
209	0xbe464010	-0.19360375
210	0xbca71a67	-0.020398332
211	0xbdae4673	-0.08509531
212	0xbd52bb53	-0.051448178
213	0x3d1db2d3	0.03850062
214	0xbe1656c5	-0.14681537
215	0x3d7b3f5a	0.061339714
216	0x3db2cd67	0.08730584
217	0xbe260d52	-0.16216019
218	0x3de93a7d	0.11388109
219	0xbde3a19a	-0.111148074
220	0xbdfa83ad	-0.122321464
221	0xbe04c7c0	-0.12966824
222	0x3e3d13e5	0.1846462
223	0x3e13ab03	0.14420705
224	0xbe2f328f	-0.1710913
225	0x3da000aa	0.07812627
226	0xbccd0580	-0.025027037
227	0x3df41067	0.11917191
228	0x3e265918	0.16244924
229	0x3d56bc9a	0.05242596
230	0x3d0aabda	0.033855297
231	0x3d4f7600	0.050649643
232	0x3dac2500	0.08405495
233	0x3d0a7eda	0.03381238
234	0x3e009c30	0.12559581
235	0xbccf2740	-0.02528727
236	0x3e3a5657	0.18196999
237	0xbc8c6200	-0.017136574
238	0x3a90b19a	0.0011039258
239	0xbc4bb880	-0.012434125
240	0xbe07f40f	-0.13276695
241	0x3e2869ea	0.16446653
242	0x3e0d74a2	0.13814023
243	0x3db2ac0a	0.0872422
244	0xbd9b4c00	-0.07582855
245	0x3e4c536f	0.19953702
246	0x3e080b90	0.1328566
247	0xbba1a2cd	-0.0049327374
248	0x3e304687	0.17214404
249	0xbe397a20	-0.18112993
250	0x3d551107	0.05201819
251	0xbe297290	-0.16547608
252	0x3d8da2bd	0.069158055
253	0xbdb031e7	-0.08603268
254	0xbdbed267	-0.09317475
255	0x3e4bdc2a	0.19908205

conv1.bias f4 [16]
0	0xbe492e18	-0.1964649
1	0xbe49fbca	-0.19724956
2	0xbe1c0d0a	-0.15239349
3	0x3df70b57	0.1206271
4	0xbe3aabed	-0.18229647
5	0x3e406115	0.18787034
6	0xbd696e33	-0.05698986
7	0x3ddf75ba	0.109111264
8	0xbe3e0d3f	-0.1855974
9	0xbe1bb797	-0.15206753
10	0xbe471535	-0.19441684
11	0xbcfbd3da	-0.030740667
12	0xbe139940	-0.14413929
13	0x3dcd68dd	0.10029767
14	0x3da78c30	0.081810355
15	0xbcc17cb3	-0.023619032

conv2.weight f4 [32, 16, 5, 5]
0	0xbc9382ed	-0.018006766
1	0x3d42efbb	0.047591906
2	0xbc8c3cd3	-0.017118847
3	0xbcf2ae6d	-0.029624188
4	0xbc67661a	-0.014123464
5	0x3c5e2e73	0.013560879
6	0xbb3e4580	-0.0029033124
7	0xbd2d3815	-0.042289812
8	0xbd37625d	-0.04477154
9	0xbcc7ed93	-0.024405276
10	0x3b8e7cda	0.0043483796
11	0x3cd8b34d	0.026452685
12	0x399f4400	0.00030377507
13	0xbd4985f8	-0.04920003
14	0xbc895273	-0.016762948
15	0x3d21fbff	0.039546963
16	0x3ce845d7	0.028353615
17	0xbd2d0aa5	-0.04224648
18	0xbca33fe0	-0.019927919
19	0xbd0f4b08	-0.034983665
20	0x3c079f93	0.008277792
21	0x3c9bc1ad	0.01901325
22	0x3c8bc110	0.017059833
23	0x3d498fdf	0.04920947
24	0xbd2e34f2	-0.04253096
25	0xbc09eaa7	-0.008417762
26	0x3bb00b00	0.005372405
27	0xbd007757	-0.03136381
28	0x3bbfff00	0.005859256
29	0x3d1f804a	0.038940705
30	0xbbdeaef3	-0.006795758
31	0x3c9c91c0	0.019112468
32	0x3d2f376b	0.04277746
33	0xbd464ead	-0.048414875
34	0xbcf5ae93	-0.02999047
35	0x3c847067	0.016166879
36	0xbd106a5d	-0.035257686
37	0x3c2dd5cd	0.010610056
38	0x3d1f76b5	0.038931567
39	0x3c56b387	0.013104326
40	0xbd4431f7	-0.047899213
41	0x3ceb4b4a	0.028722424
42	0xbcd702fa	-0.026246537
43	0xbcd0ccd3	-0.025488293
44	0xbd44c66b	-0.04804079
45	0x3c3b106d	0.01141749
46	0xbce804ad	-0.028322542
47	0xbccdd0b3	-0.02512393
48	0x3b54da4d	0.003247875
49	0xbc0ee0a0	-0.008720547
50	0xbcb5a127	-0.02217157
51	0xbd46dc82	-0.048550136
52	0x3cd0586d	0.02543279
53	0x3c631360	0.0138596
54	0x3bd53180	0.006506145
55	0xbd2be453	-0.041965794
56	0x3d00e0ea	0.031464495
57	0xbd222123	-0.039582383
58	0x3d1fca15	0.03901108
59	0x3bafbd4d	0.0053631426
60	0x3d131c72	0.0359158
61	0x3d132fe3	0.03593434
62	0x3d2dc492	0.042423792
63	0x3cca2923	0.024677819
64	0x3cf6b6a0	0.03011638
65	0xbcbea437	-0.023271663
66	0xbb276ce7	-0.0025547089
67	0xbd1829e8	-0.03714934
68	0xbc16363a	-0.009168202
69	0xbbf5cee7	-0.0075014713
70	0x3cd3fa93	0.025876319
71	0x3d37f38a	0.04490999
72	0xba8a28cd	-0.0010540724
73	0xbc51fea0	-0.012817055
74	0xbd1adde0	-0.037809253
75	0x3cca38e0	0.024685323
76	0xbc1adce0	-0.009452075
77	0x3cf814ad	0.030283296
78	0xbd11099d	-0.03540956
79	0x3c4ff68d	0.01269306
80	0xbc21322d	-0.009838623
81	0xbd2cc240	-0.04217744
82	0x3c9d0ca3	0.019171065
83	0xbc1f4f00	-0.009723425
84	0x3c530ecd	0.012881947
85	0x3b612367	0.0034353377
86	0x3d11b90b	0.03557686
87	0x3d36a908	0.044594795
88	0x3ce18123	0.027527397
89	0x3d1d8073	0.038452577
90	0xbd0cfd58	-0.034421295
91	0xbd0583db	-0.03259645
92	0x3ce5b793	0.028041637
93	0xbbcc96e7	-0.006243575
94	0xbcb9427d	-0.022614712
95	0x3d3d2853	0.046181034
96	0xbd045640	-0.032308817
97	0x3b2e0cb3	0.0026557862
98	0xbd265e0f	-0.040617045
99	0xbcd8227d	-0.026383633
100	0xbd23002d	-0.03979509
101	0x3d4b0a72	0.04957051
102	0x3d35f027	0.04441848
103	0x3ca11bc0	0.019666553
104	0xbd3f09d2	-0.046640225
105	0x3c10f280	0.008846879
106	0x3d195d13	0.037442278
107	0x3d2b1cff	0.0417757
108	0x3d482f87	0.04887345
109	0xbb391a80	-0.0028244555
110	0x3c3e1c40	0.011603415
111	0x3d479cea	0.04873363
112	0xbcae914d	-0.02130952
113	0x3d40633a	0.04696963
114	0x3c2efded	0.010680658
115	0xbd40ad1d	-0.047040094
116	0xbd1be7a0	-0.03806269
117	0xbbacd3c0	-0.005274266
118	0xbcd80aa0	-0.026372254
119	0x3d0e126d	0.03468554
120	0xbd47429d	-0.04864751
121	0xbd2a0040	-0.041504145
122	0xbae8f09a	-0.00177719
123	0x3c871887	0.016491188
124	0xbccdc6d0	-0.025119215
125	0xbad5d09a	-0.0016312778
126	0xbc92def7	-0.017928584
127	0x3c9e1ee3	0.019301837
128	0xbb2a02cd	-0.002594161
129	0xbd06ada0	-0.032880425
130	0xbc2b44c0	-0.010453403
131	0xbd2f7837	-0.042839255
132	0x3c425bad	0.0118626775
133	0xbcb433cd	-0.021997357
134	0x3cd90a50	0.026494175
135	0xbc6bd240	-0.014393389
136	0xbd020262	-0.031740554
137	0xbcbf5610	-0.023356467
138	0x3d0ce52d	0.034398247
139	0xbd4b8b5d	-0.049693454
140	0xbd37f1ba	-0.044908263
141	0xbd1b5b38	-0.03792879
142	0x3c9b16f3	0.018931841
143	0x3c6e31cd	0.014538241
144	0xbd29bb32	-0.04143829
145	0xbd20affa	-0.039230324
146	0xbcc76bd3	-0.024343407
147	0x3c378627	0.011201418
148	0x3d3db605	0.046316165
149	0xbcefa3e3	-0.029252952
150	0x3c37ef07	0.011226422
151	0x3d20d9f5	0.03927036
152	0x3d4862c3	0.04892231
153	0xbcb0a073	-0.021560883
154	0x3d111548	0.035420686
155	0x3d303a93	0.04302461
156	0x3c8e9a07	0.01740743
157	0xbb86c2da	-0.0041125836
158	0x3bac9e73	0.005267912
159	0x3b8e6533	0.00434556
160	0xbca7cce0	-0.020483434
161	0xbd2faa1f	-0.04288685
162	0xbc5fbaf3	-0.013655412
163	0xbcd2db00	-0.025739193
164	0x3ca2216a	0.019791324
165	0xbccb3c8a	-0.02480914
166	0xbcf10053	-0.0294191
167	0x3cfd6687	0.030932678
168	0xbb80eb33	-0.003934288
169	0xbb092bb3	-0.0020930588
170	0xbc8a0f50	-0.016853005
171	0x3cb55a4a	0.02213778
172	0xbd48960d	-0.048971225
173	0xbb3716b3	-0.0027937114
174	0x3c38f513	0.011288899
175	0xbcd172a7	-0.025567366
176	0x39f330cd	0.0004638493
177	0x3c813fb7	0.015777452
178	0x3c9af827	0.018917156
179	0x3c0be69a	0.008538866
180	0xbcbe72f7	-0.023248179
181	0x3c01a867	0.007913685
182	0xbd413bfd	-0.04717635
183	0xbd43e6ff	-0.047827717
184	0xbd02d72f	-0.031943496
185	0xbcb57590	-0.022150785
186	0xbc90ae8d	-0.017661357
187	0xbc36922d	-0.011143249
188	0xbc3fa7fa	-0.011697764
189	0x3c3e1500	0.0116016865
190	0xbd16137a	-0.036639668
191	0xbc995d0d	-0.018721128
192	0x3a0e7867	0.00054348115
193	0x3c426dad	0.011866969
194	0x3abf5e33	0.0014600217
195	0x3bbb5740	0.005717188
196	0x3bad3c5a	0.0052867355
197	0x3ccf5b43	0.025312072
198	0x3b90b100	0.0044156313
199	0x3d0e0ee5	0.034682173
200	0x3c1bdd67	0.009513236
201	0xbc66ae07	-0.014079577
202	0xbcf91b9d	-0.030408675
203	0x3d42f37a	0.04759548
204	0xbd151188	-0.036393672
205	0x3d060342	0.03271795
206	0xbcb7d183	-0.02243877
207	0xbcaa0f13	-0.020759141
208	0xbd24d4d7	-0.040242042
209	0xbb0b0667	-0.0021213533
210	0x3c4174fa	0.011807675
211	0x3cf1cf13	0.029517686
212	0x3c949c1a	0.018140841
213	0x3d174ce7	0.036938574
214	0xbcb7ad23	-0.022421425
215	0xbb6aa367	-0.0035802962
216	0x3d39d085	0.045364875
217	0x3d026755	0.031836826
218	0x3c270b6d	0.010195595
219	0x3b55df67	0.003263438
220	0xbb67d41a	-0.0035374225
221	0xbc73abc7	-0.014872498
222	0x3c5ce5c7	0.013482518
223	0x3cdab2fd	0.026696676
224	0xbd061aeb	-0.032740515
225	0xbc42fdba	-0.011901313
226	0x3cb2a9b0	0.021809429
227	0x3cfee663	0.031115716
228	0xbc2be520	-0.010491639
229	0x3d034e82	0.032057293
230	0xbb2d569a	-0.0026449324
231	0xbbd29727	-0.00642671
232	0xbd0f847f	-0.035038467
233	0xbb8e2f80	-0.0043391585
234	0x3c9258b7	0.017864568
235	0xbceff7ba	-0.02929293
236	0xbcc0184a	-0.023449082
237	0x3ca85b3a	0.020551313
238	0x3cd27ec0	0.025695205
239	0x3c3230c7	0.010875887
240	0xbce51253	-0.02796284
241	0x3d1b570d	0.037924815
242	0x3d38b540	0.04509473
243	0x3d06c95a	0.032906868
244	0xbc2d79b3	-0.010588097
245	0xbc0d03a7	-0.008606828
246	0x3c8a594a	0.01688828
247	0xba4aeccd	-0.00077409745
248	0xbd1f85f8	-0.038946122
249	0xbcbf09a0	-0.02332002
250	0xbcf21c60	-0.029554546
251	0x3c496580	0.012292266
252	0xbd196a7f	-0.03745508
253	0xbbb7abda	-0.005605203
254	0x3d0b9ca0	0.034084916
255	0xbc4c3ffa	-0.012466425

conv2.bias f4 [32]
0	0x3d35bcfd	0.044369686
1	0x3c45369a	0.012036944
2	0x3cae13ba	0.02124964
3	0xbbac42cd	-0.0052569867
4	0xbd16cf52	-0.03681881
5	0xbcddf8bd	-0.027096147
6	0xbd023ccd	-0.031796265
7	0x3bdde673	0.0067718565
8	0x3cab24b3	0.020891523
9	0xbd3d065a	-0.046148635
10	0xbc243f9a	-0.010024929
11	0xbc4c58f3	-0.012472379
12	0x3b18264d	0.0023216188
13	0xbcccafcd	-0.024986172
14	0x3d460f9d	0.048354734
15	0x3b5f2500	0.0034049153
16	0x3c841cca	0.016127009
17	0xbb8a75a7	-0.004225451
18	0xbcea347a	-0.028589476
19	0x3ca2c8ea	0.019871194
20	0xbccba897	-0.024860663
21	0xbc19900d	-0.009372723
22	0x3cb041fd	0.02151584
23	0x3d171b63	0.036891352
24	0xbb8356b3	-0.004008138
25	0x3a804c9a	0.0009788454
26	0x3cd77fe0	0.026306093
27	0xbd301985	-0.042993087
28	0xbcfa3b53	-0.030545866
29	0x3d0516ab	0.03249232
30	0x3c3d00da	0.011535848
31	0x3d49eb70	0.049296796

fc1.weight f4 [128, 1568]
0	0xbc2c9b72	-0.010535108
1	0xbc200e9a	-0.009769106
2	0x3caff71e	0.02148014
3	0x3cc91d92	0.024550233
4	0xbc3c17bd	-0.011480269
5	0xbb8e4e38	-0.0043428205
6	0x3be95c8c	0.007121628
7	0x3b08ddb2	0.0020884094
8	0xbc0c2429	-0.008553543
9	0xbc698902	-0.014253857
10	0x3c4769d4	0.0121712275
11	0xbca395c6	-0.019968878
12	0x3c8e5fff	0.017379759
13	0xbc35705e	-0.011074154
14	0x3c876023	0.016525334
15	0x3ad3442c	0.0016118339
16	0x3c5ad366	0.013356065
17	0x396fc1ad	0.00022864966
18	0xbca3999f	-0.019970713
19	0xbcb0a1da	-0.021561552
20	0xbaab9d0d	-0.001309307
21	0xbcc577bf	-0.024104951
22	0x3c51fca8	0.012816586
23	0xbc87e548	-0.016588822
24	0xbc2e9c26	-0.010657346
25	0xbccc6e82	-0.024955038
26	0x3bab1884	0.0052214283
27	0x3c4e2c5f	0.012583821
28	0xbc235665	-0.0099693285
29	0xbcb767b8	-0.022388324
30	0x3cbdefc6	0.023185622
31	0xbc2b3cf5	-0.010451545
32	0x3cba0176	0.022705775
33	0x3ccbaa31	0.024861427
34	0x3b872c71	0.004125171
35	0xba1b252e	-0.0005918321
36	0x3c8e958c	0.017405294
37	0x3c0598c6	0.0081541
38	0xb77a917f	-1.4935037e-05
39	0xbc45a79a	-0.012063885
40	0xbc9312c4	-0.017953284
41	0x3bf78054	0.0075531397
42	0xba926428	-0.0011168765
43	0x3cbc0b4e	0.02295461
44	0x3c1a78a2	0.009428175
45	0xbcac1e65	-0.021010587
46	0x3c894a8e	0.016759183
47	0xbcc5f22d	-0.02416333
48	0xbb49e48e	-0.0030806395
49	0xbca79a23	-0.02045924
50	0x3c61ba72	0.013777362
51	0xbcb494bf	-0.022043584
52	0x3cc8f65b	0.024531534
53	0xbc4283b6	-0.011872223
54	0x3c5991ee	0.013279421
55	0x3c6a7939	0.014311128
56	0xbca47411	-0.020074876
57	0xbc913a00	-0.017727852
58	0xbcadfaca	-0.02123775
59	0xbbf3c2f5	-0.007439012
60	0xbbdade6f	-0.006679348
61	0xbc8de0c1	-0.017319085
62	0xbcc047a9	-0.02347167
63	0xbc62b027	-0.013835943
64	0x3c8e4276	0.017365675
65	0xbc41bfeb	-0.011825542
66	0x3c36e8ba	0.011163885
67	0xbc3dbe28	-0.011580981
68	0x3cc184be	0.023622867
69	0xbcbce3da	-0.023057867
70	0x3c8311ad	0.01599964
71	0xbc90bea1	-0.017669024
72	0xbc2fdf99	-0.010734462
73	0xbbe0bc47	-0.006858382
74	0xbc6a9496	-0.014317652
75	0x3c8a9b31	0.016919704
76	0xbcb073ff	-0.021539686
77	0xbc07fb45	-0.008299653
78	0xbc9bac43	-0.01900304
79	0x3accf996	0.0015638347
80	0xbc60c9a7	-0.013719953
81	0x3c5b58aa	0.013387838
82	0x3bc36f91	0.0059642275
83	0x3cc7a7c0	0.024371982
84	0x3cbb10ad	0.0228351
85	0x3a7ea4c8	0.00097138854
86	0xbc80643c	-0.015672795
87	0xbb9c87c4	-0.0047769267
88	0xbbaa20e7	-0.0051919105
89	0xbc1ef67d	-0.009702322
90	0xbc4f6503	-0.01265836
91	0xbc28f1a5	-0.010311519
92	0x3bfd6de8	0.007734049
93	0x3c299f0c	0.010352861
94	0x3cbe0a07	0.02319814
95	0x3bdbfe7b	0.006713686
96	0x3ae327f5	0.0017330634
97	0x3c552d03	0.01301122
98	0x3c986377	0.018602116
99	0xbc240dd0	-0.010013059
100	0x3c617cf4	0.013762701
101	0x3a6ddac9	0.0009073434
102	0xbcc64962	-0.024204914
103	0x3c950703	0.01819182
104	0xbc04d449	-0.008107253
105	0x3ae91432	0.0017782508
106	0x3c11a1ca	0.008888671
107	0x3cb7c108	0.022430912
108	0x3c368669	0.011140444
109	0x3b9155d0	0.0044352785
110	0x3c3b06fc	0.011415239
111	0xbc1e78ed	-0.009672386
112	0x3c8d3b66	0.017240237
113	0xbbaf17a7	-0.0053433958
114	0xbc114e0f	-0.008868708
115	0xbc969b8f	-0.018384723
116	0x3c61a3ff	0.01377201
117	0xbbaecce0	-0.0053344816
118	0x3a27100a	0.00063729344
119	0x3c207eef	0.009795888
120	0x3c583d96	0.013198277
121	0x3cc745c7	0.024325265
122	0xbc06b6a5	-0.008222257
123	0xbc77b628	-0.015119113
124	0xb97c6d7b	-0.00024073377
125	0x3cb89b8f	0.022535114
126	0xbc9fcd98	-0.019507214
127	0xbcc67b1f	-0.02422863
128	0xbc98252f	-0.018572418
129	0xbb94e4be	-0.0045438698
130	0x3c3700db	0.011169638
131	0xbca8b250	-0.020592839
132	0xbb3d44a0	-0.0028880015
133	0xba36171b	-0.0006946192
134	0x3ba43b9c	0.005011989
135	0x3cb8ce51	0.022559317
136	0xba61d067	-0.0008614123
137	0x3ab766fb	0.0013992483
138	0x3c5cb911	0.013471858
139	0xbb91d5a6	-0.0044505177
140	0x3ba7c913	0.0051204055
141	0xbc395c2b	-0.011313478
142	0xbc3d8364	-0.0115669705
143	0xbcc9ddea	-0.02464195
144	0x3c0e17f6	0.008672705
145	0x3c2c1f0b	0.010505448
146	0x3bb5e315	0.005550752
147	0x3ca30783	0.019901043
148	0x3ca82ded	0.020529712
149	0xbb73053a	-0.0037081973
150	0x3bb2cc7d	0.005456506
151	0x3bf9b165	0.007620024
152	0x3c8371c1	0.016045453
153	0x3cc75e3c	0.024336927
154	0xbcc37cf1	-0.023863288
155	0xbbc4c280	-0.0060046315
156	0xbc9c546d	-0.019083226
157	0xbca127fb	-0.019672384
158	0x3b354fda	0.0027666003
159	0x3cc0d28b	0.023537895
160	0x3b3f3401	0.0029175284
161	0xbc7d54c7	-0.015462107
162	0xbb911735	-0.0044278153
163	0x3c4143b8	0.011795931
164	0x3cc89b4e	0.024488118
165	0xbc4f9e70	-0.012672052
166	0x3c0e3027	0.008678473
167	0x3befeb2b	0.0073217354
168	0xbbeb2673	-0.0071762144
169	0x3c97966e	0.018504348
170	0x3c65800a	0.014007578
171	0x3cc43a9a	0.023953725
172	0x3c884f64	0.016639419
173	0x3cbad199	0.022805022
174	0xbc7e18f0	-0.015508875
175	0x3c14bdb0	0.009078428
176	0x3c842695	0.016131679
177	0xbc82bed3	-0.015960133
178	0xbc58a0cb	-0.01322193
179	0x3b7d048c	0.0038607446
180	0xbca9a2fd	-0.020707602
181	0xba93872e	-0.0011255497
182	0xbc57bec6	-0.0131680425
183	0xbae9f3be	-0.001784913
184	0x3c8cd484	0.01719118
185	0x3c0a1bff	0.008429526
186	0xbb87699b	-0.004132462
187	0xbcaea722	-0.02131993
188	0x3aaa0f40	0.0012974516
189	0xbba8ae5b	-0.005147738
190	0x3b7ec830	0.0038876645
191	0x3baf5a11	0.005351313
192	0x3a2a00ce	0.0006485105
193	0xbca02451	-0.019548567
194	0xbcb544ac	-0.022127472
195	0x3c42e0d2	0.011894422
196	0xbc83d521	-0.016092839
197	0xbc1fb6ec	-0.009748202
198	0x3c141e97	0.009040496
199	0xbc87a370	-0.016557425
200	0xbc2778f2	-0.010221707
201	0xbcae39b3	-0.021267748
202	0x3ccb2157	0.024796171
203	0xbbd5ce96	-0.006524871
204	0x3bb25aff	0.0054429765
205	0xbcc6435b	-0.02420204
206	0xbc4ca116	-0.012489578
207	0x3b8e7d71	0.00434845
208	0xbc9dc9d1	-0.019261273
209	0x3cccca61	0.024998846
210	0xbc66373b	-0.014051254
211	0xbca2b33c	-0.019860856
212	0xbc29b470	-0.010357961
213	0x38edca38	0.00011338707
214	0xbcb27e33	-0.021788692
215	0x3b2f2159	0.0026722758
216	0xbcad69c0	-0.02116859
217	0x3c8c5a7f	0.017132996
218	0xbc78e40b	-0.015191088
219	0xbc70cbf4	-0.014697064
220	0xbb8ca0cd	-0.00429163
221	0x3c927e78	0.01788257
222	0xbbea3c2c	-0.0071482863
223	0x3c8b2ea0	0.016990006
224	0xbb31357f	-0.0027039943
225	0xbcc23518	-0.023706958
226	0xbb69d2dd	-0.0035678663
227	0x39b054e4	0.00033632584
228	0xbb845158	-0.0040380172
229	0xbc572a78	-0.013132684
230	0xbb30d6cb	-0.0026983495
231	0xbc2164b7	-0.009850672
232	0xbc994f8a	-0.018714685
233	0x3cbf13db	0.023324898
234	0x3c9ee6b1	0.019397112
235	0x3b6dbfa9	0.0036277568
236	0x3cc697ee	0.024242368
237	0xbb4a4a7b	-0.0030867148
238	0x3c6cbaf4	0.01444887
239	0x3cad6a80	0.021168947
240	0xbbba80b5	-0.0056916126
241	0xbb417396	-0.0029518357
242	0xbcbd0cb8	-0.023077354
243	0x3c038996	0.0080284085
244	0x3cbf9e20	0.02339083
245	0xbbbfbf54	-0.0058516655
246	0x3a0afbff	0.00053018326
247	0xb9372c17	-0.00017468665
248	0x3c811b4d	0.015760088
249	0xbcbe3162	-0.023216907
250	0x3c5164a1	0.012780339
251	0x3b291961	0.002580248
252	0x3b93f55d	0.0045153336
253	0xbc10df38	-0.008842282
254	0xbc3b2957	-0.01142343
255	0x3c64553f	0.01393634

fc1.bias f4 [128]
0	0xbc882265	-0.016617963
1	0xbc553922	-0.01301411
2	0x3c06ce8c	0.008227956
3	0x3c94c94e	0.018162396
4	0xbbd7c173	-0.0065843402
5	0xbcc6a537	-0.024248702
6	0xbc743989	-0.014906296
7	0xb8fdc82a	-0.000121012636
8	0x3c7a113b	0.015262897
9	0xbb2d8b44	-0.0026480714
10	0x3cb98cbb	0.022650113
11	0x3c93bc28	0.018034056
12	0xbc84d2c5	-0.016213784
13	0x3b529a9f	0.0032135618
14	0x3be15256	0.0068762703
15	0xbc94cb91	-0.018163474
16	0xba9dfa78	-0.0012052795
17	0x3b1f1d24	0.0024278844
18	0xbc3507c1	-0.011049212
19	0x3c0bae57	0.008525453
20	0x3cbf4ed6	0.023353022
21	0xbc05b90f	-0.008161797
22	0xbcbf515c	-0.023354225
23	0x3bbdbdd1	0.00579045
24	0x3c220a7f	0.009890198
25	0x3caf2634	0.021380521
26	0x3b894a64	0.0041897763
27	0x3cac0b8e	0.021001603
28	0xbc226e50	-0.009913996
29	0xbc7f4e52	-0.015582638
30	0xbb1b9246	-0.0023738309
31	0x3c8fdd03	0.017561441
32	0x3ca12a19	0.019673394
33	0xbb7dfbbb	-0.003875478
34	0x3ca16eae	0.019706097
35	0xbba0571f	-0.004893198
36	0xbc0c3090	-0.0085565
37	0x3c535fa0	0.012901217
38	0x3b531705	0.0032209766
39	0xbacd573a	-0.0015666254
40	0x3c42893a	0.011873538
41	0x3cadf2fc	0.021234028
42	0xbcc68a8d	-0.024235988
43	0x3c8abd50	0.016935974
44	0x3c0d8ff8	0.008640282
45	0x3cbd160e	0.023081806
46	0xbaee2508	-0.0018168995
47	0x3ccbe4a6	0.024889302
48	0x3cbf2e5c	0.023337536
49	0x3c3805de	0.011231868
50	0xbba6eb2c	-0.0050939526
51	0xbcbbb2b1	-0.022912355
52	0x3b82b472	0.003988796
53	0x3bac9902	0.0052672634
54	0xbc20c044	-0.009811465
55	0xbb82fb48	-0.00399724
56	0x3cb29e3e	0.021803971
57	0xbc8b3fe0	-0.016998231
58	0x3c59cfc7	0.013294167
59	0x3cb3503c	0.021888845
60	0x3bc424aa	0.005985816
61	0x3ca25e60	0.019820392
62	0x3ca7b40a	0.020471592
63	0x3b4e9ce7	0.0031526627
64	0x3bac518a	0.0052587437
65	0x3bd9b560	0.006643936
66	0x3c44a0bc	0.012001213
67	0x3b594d5a	0.0033157677
68	0x3caa1be7	0.020765258
69	0xbcb0f7ba	-0.0216025
70	0x3c065123	0.008198055
71	0xbc02ef8a	-0.007991681
72	0x3c81f30f	0.01586297
73	0x3c8a8f8a	0.016914148
74	0x3c827268	0.015923694
75	0x3c07eb08	0.008295782
76	0xbafefdc6	-0.0019454292
77	0xbbd283f1	-0.00642442
78	0xbc9ea874	-0.019367434
79	0xbc1c7cd8	-0.009551249
80	0xbbbb9454	-0.005724469
81	0xbcb4db5b	-0.022077253
82	0x3c4ffc82	0.01269448
83	0x3be91514	0.0071131084
84	0xbc09b5a4	-0.008405123
85	0xbb8057c4	-0.0039167125
86	0x3cbd59fb	0.023114195
87	0xbbaed17f	-0.0053350325
88	0xbca384f0	-0.01996085
89	0x3c3e7d07	0.0116264885
90	0xbc7ea38e	-0.015541924
91	0xbb711aa5	-0.0036789563
92	0x3bb4d902	0.0055190334
93	0xbba981bb	-0.005172936
94	0x3bbb63b7	0.005718674
95	0xbc751cf2	-0.014960514
96	0x3b80c7f8	0.003930088
97	0xb92eaa33	-0.00016657337
98	0x3c8101b8	0.01574789
99	0xbcbeaae0	-0.023274839
100	0x3c8ae1d9	0.016953396
101	0xbc51054f	-0.012757613
102	0xbc652a2d	-0.013987106
103	0x39a1a98c	0.00030834635
104	0xbc0d7502	-0.008633854
105	0x3b3081a4	0.002693274
106	0x3be3acde	0.0069480976
107	0x3c662c21	0.014048607
108	0x3c3073c9	0.010769793
109	0xbb5b9436	-0.0033505089
110	0xbc518afd	-0.012789485
111	0xbb7c9ddd	-0.0038546242
112	0xbc3e03c8	-0.011597581
113	0x3c41d210	0.011829868
114	0xbcab7baf	-0.020933
115	0x3b9b1490	0.004732676
116	0xba6ebee0	-0.0009107422
117	0xbca07101	-0.019585134
118	0xbb585e19	-0.003301507
119	0x3c8ff31f	0.017571984
120	0x3c9f22ef	0.019425837
121	0x3c702ac9	0.014658638
122	0xba81117c	-0.000984713
123	0x3c7e8a03	0.015535834
124	0x3a21c196	0.0006170509
125	0xbc49dc26	-0.012320554
126	0x3c2ac62a	0.010423223
127	0x3c427126	0.011867797

fc2.weight f4 [10, 128]
0	0x3d6da183	0.058015358
1	0x3d26a486	0.040684246
2	0xbd7a0568	-0.061040312
3	0x3d957989	0.072985716
4	0xbda3e6a8	-0.080029786
5	0x3d3786af	0.04480618
6	0x3dabb90b	0.083849035
7	0x3cf62ba2	0.030050103
8	0x3dab81ed	0.08374391
9	0x3c79c06b	0.01524363
10	0x3c984e82	0.018592123
11	0xbd90d2a7	-0.07071429
12	0x3cdb7304	0.026788242
13	0x3d646585	0.05576088
14	0x3db353e4	0.08756235
15	0xbca4c888	-0.020115152
16	0xbc40f1b5	-0.011776377
17	0xbda017e7	-0.07817059
18	0x3cdb760b	0.026789686
19	0x3da3e17d	0.08001993
20	0x3b889b4b	0.004168903
21	0x3d9931f5	0.07480232
22	0xbd1d3400	-0.03837967
23	0xbd5ace34	-0.053419307
24	0x3d5cf3ab	0.053943317
25	0x3d94b916	0.07261865
26	0xbd8aeda2	-0.06783606
27	0xbd9f0db6	-0.07766287
28	0xbd3c979b	-0.04604302
29	0x3d8f464b	0.06995829
30	0xbc067891	-0.008207456
31	0xbcccbdd9	-0.02499287
32	0x3d32e54b	0.043675702
33	0x3d13bb6e	0.03606742
34	0xbac2f831	-0.0014874992
35	0x3d96fef7	0.073728494
36	0xbcd8a104	-0.026443966
37	0xbd8a53e3	-0.06754281
38	0x3d7496d9	0.059714172
39	0x3d7ad9d0	0.06124288
40	0xbae0529e	-0.0017114466
41	0x3cb50350	0.022096306
42	0x3cc1d4e3	0.023661083
43	0xbd9e906e	-0.077423915
44	0xbb248b3c	-0.0025107404
45	0x3da9737f	0.08273982
46	0x3d970f13	0.07375922
47	0x3d24fd4f	0.040280636
48	0x3d92f5f5	0.07175819
49	0x3da5c01e	0.08093284
50	0x3dadeb58	0.08492154
51	0xbc9f7448	-0.019464627
52	0x3d16355c	0.03667198
53	0xbc076019	-0.008262658
54	0xbb0c0e8e	-0.002137098
55	0x3d189e5e	0.037260406
56	0xbcdd6663	-0.02702636
57	0xbda305e9	-0.07960112
58	0xbb660fa1	-0.003510453
59	0xbda1380c	-0.07872018
60	0x3da977bc	0.08274791
61	0x3d849a43	0.064747356
62	0xbd735df3	-0.05941577
63	0xbd45e00c	-0.04830937
64	0xbda74fb6	-0.081695005
65	0xbd8e91d6	-0.0696141
66	0xbc9fbb30	-0.019498438
67	0x3d8b3d9e	0.06798862
68	0xbd99080a	-0.074722365
69	0xbc4c47e5	-0.012468313
70	0xbd120a59	-0.0356544
71	0x3d7d27ba	0.061805464
72	0x3dac75d6	0.08420913
73	0x3db3ac39	0.08773083
74	0xbd70f73b	-0.058829527
75	0xbd4f9a6f	-0.05068439
76	0x3d908a49	0.07057626
77	0x3d488966	0.04895916
78	0x3b58809f	0.0033035649
79	0x3d8ffd26	0.07030706
80	0xbd9e1dcb	-0.07720526
81	0x3d8b2087	0.067933135
82	0xbdabbcf9	-0.08385653
83	0x3d7fa1d0	0.062410176
84	0xbda4e56b	-0.080515705
85	0x3b916ec3	0.0044382527
86	0xbd8ae3c8	-0.06781727
87	0xbdb31c2c	-0.08745608
88	0xbbdbbd70	-0.0067059323
89	0xbcdf651e	-0.027269896
90	0xbbe660af	-0.0070305686
91	0x3d0a26f0	0.03372854
92	0x3c815b06	0.015790474
93	0x3d650eda	0.055922367
94	0x3d7c4f25	0.061598916
95	0xbd4b703f	-0.049667593
96	0xbdb1e2a5	-0.08685807
97	0xbd0e2296	-0.034700952
98	0x3d6eb669	0.05827943
99	0xbd5dfdeb	-0.054197233
100	0xbc1bbbdf	-0.009505241
101	0xbb102bcb	-0.002199876
102	0x3c8c0a61	0.017094793
103	0x3c3c6421	0.011498482
104	0x3d3f7f1e	0.046752088
105	0xbd845f18	-0.0646345
106	0x3d808ce6	0.06276874
107	0xbc211080	-0.009830594
108	0xbcf84497	-0.030306144
109	0xbd8f3c85	-0.06993965
110	0x3bf2235e	0.00738947
111	0x3c195d38	0.009360604
112	0xbd4acfef	-0.049514707
113	0x3cf8485e	0.030307945
114	0xbb5e6b3e	-0.0033938433
115	0x3bda4542	0.006661088
116	0xbd2df20f	-0.042467173
117	0xbcee748d	-0.02910831
118	0x3d67e866	0.056618117
119	0xbbbe44c9	-0.0058065397
120	0xbda1b4fb	-0.078958474
121	0x3c9412d8	0.018075392
122	0xbd6539a4	-0.055963174
123	0xbdabe89e	-0.083939776
124	0x3c180c54	0.009280283
125	0xbcfd50fc	-0.030922405
126	0xbda7e978	-0.081988275
127	0x3d54f8d9	0.051995132
128	0x3d2d6e43	0.042341482
129	0x3cbd916c	0.023140632
130	0x3d915d03	0.07097819
131	0x3d83ac0d	0.064293005
132	0x3cc3a9a2	0.023884598
133	0xbd2521f5	-0.040315587
134	0x3d8f74b2	0.0700468
135	0xbc004988	-0.007830031
136	0xbce3f8bf	-0.027828572
137	0xbd675a31	-0.056482498
138	0xbd1f38e2	-0.038872607
139	0x3b987df3	0.004653686
140	0x3db035a9	0.08603985
141	0x3d729ff9	0.059234593
142	0xbd85bfef	-0.06530749
143	0x3d974ea8	0.07388049
144	0xbc13af7f	-0.0090140095
145	0x3da7df94	0.08196941
146	0xbd33cc68	-0.04389611
147	0x3d47d795	0.04878958
148	0xbb36f0be	-0.002791449
149	0x3c59d490	0.013295308
150	0xbd1a1b6e	-0.037623815
151	0xbd9b7619	-0.07590885
152	0x3da96fdb	0.08273288
153	0x3ca6b793	0.020351207
154	0xbd297deb	-0.04137985
155	0xbd9e4916	-0.07728784
156	0xbd1788ed	-0.036995817
157	0x3c6ceaa0	0.014460236
158	0xbd066e34	-0.03281994
159	0xbd8e3453	-0.06943574
160	0x3d969eb0	0.07354486
161	0xbd2f4211	-0.042787615
162	0x3cec3562	0.028834049
163	0x3cff6bff	0.031179426
164	0x3db47059	0.08810491
165	0x3cefb06d	0.029258931
166	0x3d950ef9	0.072782464
167	0x3c563805	0.01307488
168	0x3da45bcd	0.08025322
169	0x3d25b61c	0.040456876
170	0xbad724e6	-0.0016414195
171	0x3cfee8a1	0.031116785
172	0xbcee91eb	-0.029122313
173	0xbd681f35	-0.056670386
174	0x3dad6a9e	0.08467601
175	0x3ce616b3	0.028086996
176	0xbda11994	-0.07866207
177	0x3d361f6d	0.044463564
178	0xbda798ad	-0.081834175
179	0x3cebd9fe	0.02879047
180	0xbb8fe00b	-0.0043907217
181	0xbd1160be	-0.03549265
182	0xbd3714e7	-0.04469767
183	0x3cc869f7	0.02446459
184	0xbbb7991f	-0.0056029703
185	0x3d24a5e2	0.04019726
186	0x3d94124f	0.072300546
187	0x3d0aa6c3	0.033850443
188	0x3cc00daa	0.023444016
189	0x3b1e1d71	0.0024126435
190	0xbc3d71a0	-0.011562735
191	0x3d56afe5	0.05241384
192	0xbd10ece3	-0.035382163
193	0xbcca57d0	-0.024700075
194	0x3d9ac04b	0.07556208
195	0x3dadf68a	0.08494289
196	0x3d98846e	0.07447134
197	0xbd85e68f	-0.06538116
198	0xbcf3adb6	-0.029745918
199	0x3d43b010	0.04777533
200	0xbd04737b	-0.032336693
201	0xbca14b5e	-0.019689258
202	0xbd08a424	-0.03335966
203	0xbd265a7d	-0.04061364
204	0xbce17ee5	-0.027526328
205	0xbc358c73	-0.011080849
206	0x3dac99e3	0.08427789
207	0x3d5e90da	0.05433736
208	0xbd8b25f3	-0.067943476
209	0xbd502d80	-0.050824642
210	0x3db0cba1	0.08632589
211	0x3db15017	0.08657854
212	0x3d74efb0	0.059798896
213	0xbd5c6c56	-0.053814255
214	0xbd51c224	-0.051210538
215	0xbcc5d3fb	-0.024148932
216	0x3c3d89ef	0.01156853
217	0x3cc7fffd	0.024414057
218	0xbda73305	-0.08164028
219	0x3d8009b2	0.06251849
220	0x3d87924b	0.066197
221	0xbd813458	-0.06308812
222	0x3d333716	0.043753706
223	0x3c01b167	0.007915831
224	0x3cb237e0	0.021755159
225	0xbd99bc5c	-0.0750663
226	0x3c94cda2	0.01816446
227	0xbca0da73	-0.019635415
228	0xbb8a4635	-0.004219795
229	0x3ca1d1da	0.019753385
230	0x3c80ff69	0.015746789
231	0xbc9eb568	-0.01937361
232	0xbd8be8a5	-0.06831483
233	0x3d839e8b	0.06426724
234	0x3ccf82a2	0.025330845
235	0x3c5d56a2	0.013509424
236	0xbd96d1f9	-0.07364268
237	0xbdb16dd8	-0.08663529
238	0x3da10186	0.07861619
239	0xbbc664ea	-0.0060545104
240	0xbcd2c8bb	-0.025730481
241	0xbdb0aacb	-0.08626326
242	0xbc44ed39	-0.012019449
243	0x3d9be5f1	0.07612217
244	0x3d5114d8	0.05104527
245	0x3db3ff37	0.08788913
246	0xbae53906	-0.0017488308
247	0xbd85df80	-0.0653677
248	0xba2cd3ac	-0.0006592821
249	0xbd2afddd	-0.04174601
250	0x3cc91e80	0.024550676
251	0x380f0e79	3.4107336e-05
252	0x3d829a25	0.06377057
253	0xbd54d00f	-0.051956233
254	0x3d9b85eb	0.07593902
255	0x3b982902	0.0046435604

fc2.bias f4 [10]
0	0x3c1b42d3	0.009476381
1	0xbd984e71	-0.074368365
2	0x3c362b32	0.011118697
3	0x3ce25323	0.027627533
4	0x3d0d79b6	0.0345399
5	0xbcc4a546	-0.02400459
6	0x3d365117	0.044510927
7	0xbd7c790a	-0.06163887
8	0x3c20f4ca	0.009823987
9	0xbb6d9652	-0.0036252928
